
You're using a GPTNeoXTokenizerFast tokenizer. Please note that with a fast tokenizer, using the `__call__` method is faster than using a method to encode the text followed by a call to the `pad` method to get a padded encoding.















































































100%|██████████| 1736/1736 [02:38<00:00, 10.94it/s]
[Embedding(50304, 512), GPTNeoXAttention(
  (rotary_emb): GPTNeoXRotaryEmbedding()
  (query_key_value): Linear(in_features=512, out_features=1536, bias=True)
  (dense): Linear(in_features=512, out_features=512, bias=True)
  (attention_dropout): Dropout(p=0.0, inplace=False)
), GPTNeoXMLP(
  (dense_h_to_4h): Linear(in_features=512, out_features=2048, bias=True)
  (dense_4h_to_h): Linear(in_features=2048, out_features=512, bias=True)
  (act): GELUActivation()
), GPTNeoXLayer(
  (input_layernorm): LayerNorm((512,), eps=1e-05, elementwise_affine=True)
  (post_attention_layernorm): LayerNorm((512,), eps=1e-05, elementwise_affine=True)
  (post_attention_dropout): Dropout(p=0.0, inplace=False)
  (post_mlp_dropout): Dropout(p=0.0, inplace=False)
  (attention): GPTNeoXAttention(
    (rotary_emb): GPTNeoXRotaryEmbedding()
    (query_key_value): Linear(in_features=512, out_features=1536, bias=True)
    (dense): Linear(in_features=512, out_features=512, bias=True)
    (attention_dropout): Dropout(p=0.0, inplace=False)
  )
  (mlp): GPTNeoXMLP(
    (dense_h_to_4h): Linear(in_features=512, out_features=2048, bias=True)
    (dense_4h_to_h): Linear(in_features=2048, out_features=512, bias=True)
    (act): GELUActivation()
  )
), GPTNeoXAttention(
  (rotary_emb): GPTNeoXRotaryEmbedding()
  (query_key_value): Linear(in_features=512, out_features=1536, bias=True)
  (dense): Linear(in_features=512, out_features=512, bias=True)
  (attention_dropout): Dropout(p=0.0, inplace=False)
), GPTNeoXMLP(
  (dense_h_to_4h): Linear(in_features=512, out_features=2048, bias=True)
  (dense_4h_to_h): Linear(in_features=2048, out_features=512, bias=True)
  (act): GELUActivation()
), GPTNeoXLayer(
  (input_layernorm): LayerNorm((512,), eps=1e-05, elementwise_affine=True)
  (post_attention_layernorm): LayerNorm((512,), eps=1e-05, elementwise_affine=True)
  (post_attention_dropout): Dropout(p=0.0, inplace=False)
  (post_mlp_dropout): Dropout(p=0.0, inplace=False)
  (attention): GPTNeoXAttention(
    (rotary_emb): GPTNeoXRotaryEmbedding()
    (query_key_value): Linear(in_features=512, out_features=1536, bias=True)
    (dense): Linear(in_features=512, out_features=512, bias=True)
    (attention_dropout): Dropout(p=0.0, inplace=False)
  )
  (mlp): GPTNeoXMLP(
    (dense_h_to_4h): Linear(in_features=512, out_features=2048, bias=True)
    (dense_4h_to_h): Linear(in_features=2048, out_features=512, bias=True)
    (act): GELUActivation()
  )
), GPTNeoXAttention(
  (rotary_emb): GPTNeoXRotaryEmbedding()
  (query_key_value): Linear(in_features=512, out_features=1536, bias=True)
  (dense): Linear(in_features=512, out_features=512, bias=True)
  (attention_dropout): Dropout(p=0.0, inplace=False)
), GPTNeoXMLP(
  (dense_h_to_4h): Linear(in_features=512, out_features=2048, bias=True)
  (dense_4h_to_h): Linear(in_features=2048, out_features=512, bias=True)
  (act): GELUActivation()
), GPTNeoXLayer(
  (input_layernorm): LayerNorm((512,), eps=1e-05, elementwise_affine=True)
  (post_attention_layernorm): LayerNorm((512,), eps=1e-05, elementwise_affine=True)
  (post_attention_dropout): Dropout(p=0.0, inplace=False)
  (post_mlp_dropout): Dropout(p=0.0, inplace=False)
  (attention): GPTNeoXAttention(
    (rotary_emb): GPTNeoXRotaryEmbedding()
    (query_key_value): Linear(in_features=512, out_features=1536, bias=True)
    (dense): Linear(in_features=512, out_features=512, bias=True)
    (attention_dropout): Dropout(p=0.0, inplace=False)
  )
  (mlp): GPTNeoXMLP(
    (dense_h_to_4h): Linear(in_features=512, out_features=2048, bias=True)
    (dense_4h_to_h): Linear(in_features=2048, out_features=512, bias=True)
    (act): GELUActivation()
  )
), GPTNeoXAttention(
  (rotary_emb): GPTNeoXRotaryEmbedding()
  (query_key_value): Linear(in_features=512, out_features=1536, bias=True)
  (dense): Linear(in_features=512, out_features=512, bias=True)
  (attention_dropout): Dropout(p=0.0, inplace=False)
), GPTNeoXMLP(
  (dense_h_to_4h): Linear(in_features=512, out_features=2048, bias=True)
  (dense_4h_to_h): Linear(in_features=2048, out_features=512, bias=True)
  (act): GELUActivation()
), GPTNeoXLayer(
  (input_layernorm): LayerNorm((512,), eps=1e-05, elementwise_affine=True)
  (post_attention_layernorm): LayerNorm((512,), eps=1e-05, elementwise_affine=True)
  (post_attention_dropout): Dropout(p=0.0, inplace=False)
  (post_mlp_dropout): Dropout(p=0.0, inplace=False)
  (attention): GPTNeoXAttention(
    (rotary_emb): GPTNeoXRotaryEmbedding()
    (query_key_value): Linear(in_features=512, out_features=1536, bias=True)
    (dense): Linear(in_features=512, out_features=512, bias=True)
    (attention_dropout): Dropout(p=0.0, inplace=False)
  )
  (mlp): GPTNeoXMLP(
    (dense_h_to_4h): Linear(in_features=512, out_features=2048, bias=True)
    (dense_4h_to_h): Linear(in_features=2048, out_features=512, bias=True)
    (act): GELUActivation()
  )
), GPTNeoXAttention(
  (rotary_emb): GPTNeoXRotaryEmbedding()
  (query_key_value): Linear(in_features=512, out_features=1536, bias=True)
  (dense): Linear(in_features=512, out_features=512, bias=True)
  (attention_dropout): Dropout(p=0.0, inplace=False)
), GPTNeoXMLP(
  (dense_h_to_4h): Linear(in_features=512, out_features=2048, bias=True)
  (dense_4h_to_h): Linear(in_features=2048, out_features=512, bias=True)
  (act): GELUActivation()
), GPTNeoXLayer(
  (input_layernorm): LayerNorm((512,), eps=1e-05, elementwise_affine=True)
  (post_attention_layernorm): LayerNorm((512,), eps=1e-05, elementwise_affine=True)
  (post_attention_dropout): Dropout(p=0.0, inplace=False)
  (post_mlp_dropout): Dropout(p=0.0, inplace=False)
  (attention): GPTNeoXAttention(
    (rotary_emb): GPTNeoXRotaryEmbedding()
    (query_key_value): Linear(in_features=512, out_features=1536, bias=True)
    (dense): Linear(in_features=512, out_features=512, bias=True)
    (attention_dropout): Dropout(p=0.0, inplace=False)
  )
  (mlp): GPTNeoXMLP(
    (dense_h_to_4h): Linear(in_features=512, out_features=2048, bias=True)
    (dense_4h_to_h): Linear(in_features=2048, out_features=512, bias=True)
    (act): GELUActivation()
  )
)]
Embedding(50304, 512)
GPTNeoXAttention(
  (rotary_emb): GPTNeoXRotaryEmbedding()
  (query_key_value): Linear(in_features=512, out_features=1536, bias=True)
  (dense): Linear(in_features=512, out_features=512, bias=True)
  (attention_dropout): Dropout(p=0.0, inplace=False)
)
GPTNeoXMLP(
  (dense_h_to_4h): Linear(in_features=512, out_features=2048, bias=True)
  (dense_4h_to_h): Linear(in_features=2048, out_features=512, bias=True)
  (act): GELUActivation()
)
GPTNeoXLayer(
  (input_layernorm): LayerNorm((512,), eps=1e-05, elementwise_affine=True)
  (post_attention_layernorm): LayerNorm((512,), eps=1e-05, elementwise_affine=True)
  (post_attention_dropout): Dropout(p=0.0, inplace=False)
  (post_mlp_dropout): Dropout(p=0.0, inplace=False)
  (attention): GPTNeoXAttention(
    (rotary_emb): GPTNeoXRotaryEmbedding()
    (query_key_value): Linear(in_features=512, out_features=1536, bias=True)
    (dense): Linear(in_features=512, out_features=512, bias=True)
    (attention_dropout): Dropout(p=0.0, inplace=False)
  )
  (mlp): GPTNeoXMLP(
    (dense_h_to_4h): Linear(in_features=512, out_features=2048, bias=True)
    (dense_4h_to_h): Linear(in_features=2048, out_features=512, bias=True)
    (act): GELUActivation()
  )
)
GPTNeoXAttention(
  (rotary_emb): GPTNeoXRotaryEmbedding()
  (query_key_value): Linear(in_features=512, out_features=1536, bias=True)
  (dense): Linear(in_features=512, out_features=512, bias=True)
  (attention_dropout): Dropout(p=0.0, inplace=False)
)
GPTNeoXMLP(
  (dense_h_to_4h): Linear(in_features=512, out_features=2048, bias=True)
  (dense_4h_to_h): Linear(in_features=2048, out_features=512, bias=True)
  (act): GELUActivation()
)
GPTNeoXLayer(
  (input_layernorm): LayerNorm((512,), eps=1e-05, elementwise_affine=True)
  (post_attention_layernorm): LayerNorm((512,), eps=1e-05, elementwise_affine=True)
  (post_attention_dropout): Dropout(p=0.0, inplace=False)
  (post_mlp_dropout): Dropout(p=0.0, inplace=False)
  (attention): GPTNeoXAttention(
    (rotary_emb): GPTNeoXRotaryEmbedding()
    (query_key_value): Linear(in_features=512, out_features=1536, bias=True)
    (dense): Linear(in_features=512, out_features=512, bias=True)
    (attention_dropout): Dropout(p=0.0, inplace=False)
  )
  (mlp): GPTNeoXMLP(
    (dense_h_to_4h): Linear(in_features=512, out_features=2048, bias=True)
    (dense_4h_to_h): Linear(in_features=2048, out_features=512, bias=True)
    (act): GELUActivation()
  )
)
GPTNeoXAttention(
  (rotary_emb): GPTNeoXRotaryEmbedding()
  (query_key_value): Linear(in_features=512, out_features=1536, bias=True)
  (dense): Linear(in_features=512, out_features=512, bias=True)
  (attention_dropout): Dropout(p=0.0, inplace=False)
)
GPTNeoXMLP(
  (dense_h_to_4h): Linear(in_features=512, out_features=2048, bias=True)
  (dense_4h_to_h): Linear(in_features=2048, out_features=512, bias=True)
  (act): GELUActivation()
)
GPTNeoXLayer(
  (input_layernorm): LayerNorm((512,), eps=1e-05, elementwise_affine=True)
  (post_attention_layernorm): LayerNorm((512,), eps=1e-05, elementwise_affine=True)
  (post_attention_dropout): Dropout(p=0.0, inplace=False)
  (post_mlp_dropout): Dropout(p=0.0, inplace=False)
  (attention): GPTNeoXAttention(
    (rotary_emb): GPTNeoXRotaryEmbedding()
    (query_key_value): Linear(in_features=512, out_features=1536, bias=True)
    (dense): Linear(in_features=512, out_features=512, bias=True)
    (attention_dropout): Dropout(p=0.0, inplace=False)
  )
  (mlp): GPTNeoXMLP(
    (dense_h_to_4h): Linear(in_features=512, out_features=2048, bias=True)
    (dense_4h_to_h): Linear(in_features=2048, out_features=512, bias=True)
    (act): GELUActivation()
  )
)
GPTNeoXAttention(
  (rotary_emb): GPTNeoXRotaryEmbedding()
  (query_key_value): Linear(in_features=512, out_features=1536, bias=True)
  (dense): Linear(in_features=512, out_features=512, bias=True)
  (attention_dropout): Dropout(p=0.0, inplace=False)
)
GPTNeoXMLP(
  (dense_h_to_4h): Linear(in_features=512, out_features=2048, bias=True)
  (dense_4h_to_h): Linear(in_features=2048, out_features=512, bias=True)
  (act): GELUActivation()
)
GPTNeoXLayer(
  (input_layernorm): LayerNorm((512,), eps=1e-05, elementwise_affine=True)
  (post_attention_layernorm): LayerNorm((512,), eps=1e-05, elementwise_affine=True)
  (post_attention_dropout): Dropout(p=0.0, inplace=False)
  (post_mlp_dropout): Dropout(p=0.0, inplace=False)
  (attention): GPTNeoXAttention(
    (rotary_emb): GPTNeoXRotaryEmbedding()
    (query_key_value): Linear(in_features=512, out_features=1536, bias=True)
    (dense): Linear(in_features=512, out_features=512, bias=True)
    (attention_dropout): Dropout(p=0.0, inplace=False)
  )
  (mlp): GPTNeoXMLP(
    (dense_h_to_4h): Linear(in_features=512, out_features=2048, bias=True)
    (dense_4h_to_h): Linear(in_features=2048, out_features=512, bias=True)
    (act): GELUActivation()
  )
)
GPTNeoXAttention(
  (rotary_emb): GPTNeoXRotaryEmbedding()
  (query_key_value): Linear(in_features=512, out_features=1536, bias=True)
  (dense): Linear(in_features=512, out_features=512, bias=True)
  (attention_dropout): Dropout(p=0.0, inplace=False)
)
GPTNeoXMLP(
  (dense_h_to_4h): Linear(in_features=512, out_features=2048, bias=True)
  (dense_4h_to_h): Linear(in_features=2048, out_features=512, bias=True)
  (act): GELUActivation()
)
GPTNeoXLayer(
  (input_layernorm): LayerNorm((512,), eps=1e-05, elementwise_affine=True)
  (post_attention_layernorm): LayerNorm((512,), eps=1e-05, elementwise_affine=True)
  (post_attention_dropout): Dropout(p=0.0, inplace=False)
  (post_mlp_dropout): Dropout(p=0.0, inplace=False)
  (attention): GPTNeoXAttention(
    (rotary_emb): GPTNeoXRotaryEmbedding()
    (query_key_value): Linear(in_features=512, out_features=1536, bias=True)
    (dense): Linear(in_features=512, out_features=512, bias=True)
    (attention_dropout): Dropout(p=0.0, inplace=False)
  )
  (mlp): GPTNeoXMLP(
    (dense_h_to_4h): Linear(in_features=512, out_features=2048, bias=True)
    (dense_4h_to_h): Linear(in_features=2048, out_features=512, bias=True)
    (act): GELUActivation()
  )
