…
(torch.Size([1, 132, 512]), (torch.Size([1, 8, 132, 64]), torch.Size([1, 8, 132, 64])))
  0%|          | 0/22378 [00:00<?, ?it/s]/var/folders/_x/mkf1szd12yv28px5ztl_sjjr0000gn/T/ipykernel_27855/1790317004.py:69: UserWarning: To copy construct from a tensor, it is recommended to use sourceTensor.clone().detach() or sourceTensor.clone().detach().requires_grad_(True), rather than torch.tensor(sourceTensor).
  mask_sigmoid = t.sigmoid(self.mask / t.tensor(self.temperature.clone().detach()))
  0%|          | 0/22378 [00:00<?, ?it/s]
GPTNeoXAttention(
  (rotary_emb): GPTNeoXRotaryEmbedding()
  (query_key_value): Linear(in_features=512, out_features=1536, bias=True)
  (dense): Linear(in_features=512, out_features=512, bias=True)
  (attention_dropout): Dropout(p=0.0, inplace=False)
)
GPTNeoXLayer(
  (input_layernorm): LayerNorm((512,), eps=1e-05, elementwise_affine=True)
  (post_attention_layernorm): LayerNorm((512,), eps=1e-05, elementwise_affine=True)
  (post_attention_dropout): Dropout(p=0.0, inplace=False)
  (post_mlp_dropout): Dropout(p=0.0, inplace=False)
  (attention): GPTNeoXAttention(
    (rotary_emb): GPTNeoXRotaryEmbedding()
    (query_key_value): Linear(in_features=512, out_features=1536, bias=True)
    (dense): Linear(in_features=512, out_features=512, bias=True)
    (attention_dropout): Dropout(p=0.0, inplace=False)
  )
  (mlp): GPTNeoXMLP(
    (dense_h_to_4h): Linear(in_features=512, out_features=2048, bias=True)
    (dense_4h_to_h): Linear(in_features=2048, out_features=512, bias=True)
    (act): GELUActivation()
  )
)
GPTNeoXAttention(
  (rotary_emb): GPTNeoXRotaryEmbedding()
  (query_key_value): Linear(in_features=512, out_features=1536, bias=True)
  (dense): Linear(in_features=512, out_features=512, bias=True)
  (attention_dropout): Dropout(p=0.0, inplace=False)
)
GPTNeoXLayer(
  (input_layernorm): LayerNorm((512,), eps=1e-05, elementwise_affine=True)
  (post_attention_layernorm): LayerNorm((512,), eps=1e-05, elementwise_affine=True)
  (post_attention_dropout): Dropout(p=0.0, inplace=False)
  (post_mlp_dropout): Dropout(p=0.0, inplace=False)
  (attention): GPTNeoXAttention(
    (rotary_emb): GPTNeoXRotaryEmbedding()
    (query_key_value): Linear(in_features=512, out_features=1536, bias=True)
    (dense): Linear(in_features=512, out_features=512, bias=True)
    (attention_dropout): Dropout(p=0.0, inplace=False)
  )
  (mlp): GPTNeoXMLP(
    (dense_h_to_4h): Linear(in_features=512, out_features=2048, bias=True)
    (dense_4h_to_h): Linear(in_features=2048, out_features=512, bias=True)
    (act): GELUActivation()
  )
)
GPTNeoXAttention(
  (rotary_emb): GPTNeoXRotaryEmbedding()
  (query_key_value): Linear(in_features=512, out_features=1536, bias=True)
  (dense): Linear(in_features=512, out_features=512, bias=True)
  (attention_dropout): Dropout(p=0.0, inplace=False)
)
GPTNeoXLayer(
  (input_layernorm): LayerNorm((512,), eps=1e-05, elementwise_affine=True)
  (post_attention_layernorm): LayerNorm((512,), eps=1e-05, elementwise_affine=True)
  (post_attention_dropout): Dropout(p=0.0, inplace=False)
  (post_mlp_dropout): Dropout(p=0.0, inplace=False)
  (attention): GPTNeoXAttention(
    (rotary_emb): GPTNeoXRotaryEmbedding()
    (query_key_value): Linear(in_features=512, out_features=1536, bias=True)
    (dense): Linear(in_features=512, out_features=512, bias=True)
    (attention_dropout): Dropout(p=0.0, inplace=False)
  )
  (mlp): GPTNeoXMLP(
    (dense_h_to_4h): Linear(in_features=512, out_features=2048, bias=True)
    (dense_4h_to_h): Linear(in_features=2048, out_features=512, bias=True)
    (act): GELUActivation()
  )
)
GPTNeoXAttention(
  (rotary_emb): GPTNeoXRotaryEmbedding()
  (query_key_value): Linear(in_features=512, out_features=1536, bias=True)
  (dense): Linear(in_features=512, out_features=512, bias=True)
  (attention_dropout): Dropout(p=0.0, inplace=False)
)
GPTNeoXLayer(
  (input_layernorm): LayerNorm((512,), eps=1e-05, elementwise_affine=True)
  (post_attention_layernorm): LayerNorm((512,), eps=1e-05, elementwise_affine=True)
  (post_attention_dropout): Dropout(p=0.0, inplace=False)
  (post_mlp_dropout): Dropout(p=0.0, inplace=False)
  (attention): GPTNeoXAttention(
    (rotary_emb): GPTNeoXRotaryEmbedding()
    (query_key_value): Linear(in_features=512, out_features=1536, bias=True)
    (dense): Linear(in_features=512, out_features=512, bias=True)
    (attention_dropout): Dropout(p=0.0, inplace=False)
  )
  (mlp): GPTNeoXMLP(
    (dense_h_to_4h): Linear(in_features=512, out_features=2048, bias=True)
    (dense_4h_to_h): Linear(in_features=2048, out_features=512, bias=True)
    (act): GELUActivation()
  )
)
GPTNeoXAttention(
  (rotary_emb): GPTNeoXRotaryEmbedding()
  (query_key_value): Linear(in_features=512, out_features=1536, bias=True)
  (dense): Linear(in_features=512, out_features=512, bias=True)
  (attention_dropout): Dropout(p=0.0, inplace=False)
)
GPTNeoXLayer(
  (input_layernorm): LayerNorm((512,), eps=1e-05, elementwise_affine=True)
  (post_attention_layernorm): LayerNorm((512,), eps=1e-05, elementwise_affine=True)
  (post_attention_dropout): Dropout(p=0.0, inplace=False)
  (post_mlp_dropout): Dropout(p=0.0, inplace=False)
  (attention): GPTNeoXAttention(
    (rotary_emb): GPTNeoXRotaryEmbedding()
    (query_key_value): Linear(in_features=512, out_features=1536, bias=True)
    (dense): Linear(in_features=512, out_features=512, bias=True)
    (attention_dropout): Dropout(p=0.0, inplace=False)
  )
  (mlp): GPTNeoXMLP(
    (dense_h_to_4h): Linear(in_features=512, out_features=2048, bias=True)
    (dense_4h_to_h): Linear(in_features=2048, out_features=512, bias=True)
    (act): GELUActivation()
  )
)
/Users/maheepchaudhary/miniforge3/envs/nnsight/lib/python3.12/site-packages/huggingface_hub/file_download.py:1132: FutureWarning: `resume_download` is deprecated and will be removed in version 1.0.0. Downloads always resume when possible. If you want to force a new download, use `force_download=True`.
  warnings.warn(