0
1
2
3
4
5
6
7
8
9
10
11
12
13
14
15
GPTNeoXAttention(
  (rotary_emb): GPTNeoXRotaryEmbedding()
  (query_key_value): Linear(in_features=512, out_features=1536, bias=True)
  (dense): Linear(in_features=512, out_features=512, bias=True)
  (attention_dropout): Dropout(p=0.0, inplace=False)
)
GPTNeoXLayer(
  (input_layernorm): LayerNorm((512,), eps=1e-05, elementwise_affine=True)
  (post_attention_layernorm): LayerNorm((512,), eps=1e-05, elementwise_affine=True)
  (post_attention_dropout): Dropout(p=0.0, inplace=False)
  (post_mlp_dropout): Dropout(p=0.0, inplace=False)
  (attention): GPTNeoXAttention(
    (rotary_emb): GPTNeoXRotaryEmbedding()
    (query_key_value): Linear(in_features=512, out_features=1536, bias=True)
    (dense): Linear(in_features=512, out_features=512, bias=True)
    (attention_dropout): Dropout(p=0.0, inplace=False)
  )
  (mlp): GPTNeoXMLP(
    (dense_h_to_4h): Linear(in_features=512, out_features=2048, bias=True)
    (dense_4h_to_h): Linear(in_features=2048, out_features=512, bias=True)
    (act): GELUActivation()
  )
)
GPTNeoXAttention(
  (rotary_emb): GPTNeoXRotaryEmbedding()
  (query_key_value): Linear(in_features=512, out_features=1536, bias=True)
  (dense): Linear(in_features=512, out_features=512, bias=True)
  (attention_dropout): Dropout(p=0.0, inplace=False)
)
GPTNeoXLayer(
  (input_layernorm): LayerNorm((512,), eps=1e-05, elementwise_affine=True)
  (post_attention_layernorm): LayerNorm((512,), eps=1e-05, elementwise_affine=True)
  (post_attention_dropout): Dropout(p=0.0, inplace=False)
  (post_mlp_dropout): Dropout(p=0.0, inplace=False)
  (attention): GPTNeoXAttention(
    (rotary_emb): GPTNeoXRotaryEmbedding()
    (query_key_value): Linear(in_features=512, out_features=1536, bias=True)
    (dense): Linear(in_features=512, out_features=512, bias=True)
    (attention_dropout): Dropout(p=0.0, inplace=False)
  )
  (mlp): GPTNeoXMLP(
    (dense_h_to_4h): Linear(in_features=512, out_features=2048, bias=True)
    (dense_4h_to_h): Linear(in_features=2048, out_features=512, bias=True)
    (act): GELUActivation()
  )
)
GPTNeoXAttention(
  (rotary_emb): GPTNeoXRotaryEmbedding()
  (query_key_value): Linear(in_features=512, out_features=1536, bias=True)
  (dense): Linear(in_features=512, out_features=512, bias=True)
  (attention_dropout): Dropout(p=0.0, inplace=False)
)
GPTNeoXLayer(
  (input_layernorm): LayerNorm((512,), eps=1e-05, elementwise_affine=True)
  (post_attention_layernorm): LayerNorm((512,), eps=1e-05, elementwise_affine=True)
  (post_attention_dropout): Dropout(p=0.0, inplace=False)
  (post_mlp_dropout): Dropout(p=0.0, inplace=False)
  (attention): GPTNeoXAttention(
    (rotary_emb): GPTNeoXRotaryEmbedding()
    (query_key_value): Linear(in_features=512, out_features=1536, bias=True)
    (dense): Linear(in_features=512, out_features=512, bias=True)
    (attention_dropout): Dropout(p=0.0, inplace=False)
  )
  (mlp): GPTNeoXMLP(
    (dense_h_to_4h): Linear(in_features=512, out_features=2048, bias=True)
    (dense_4h_to_h): Linear(in_features=2048, out_features=512, bias=True)
    (act): GELUActivation()
  )
)
GPTNeoXAttention(
  (rotary_emb): GPTNeoXRotaryEmbedding()
  (query_key_value): Linear(in_features=512, out_features=1536, bias=True)
  (dense): Linear(in_features=512, out_features=512, bias=True)
  (attention_dropout): Dropout(p=0.0, inplace=False)
)
GPTNeoXLayer(
  (input_layernorm): LayerNorm((512,), eps=1e-05, elementwise_affine=True)
  (post_attention_layernorm): LayerNorm((512,), eps=1e-05, elementwise_affine=True)
  (post_attention_dropout): Dropout(p=0.0, inplace=False)
  (post_mlp_dropout): Dropout(p=0.0, inplace=False)
  (attention): GPTNeoXAttention(
    (rotary_emb): GPTNeoXRotaryEmbedding()
    (query_key_value): Linear(in_features=512, out_features=1536, bias=True)
    (dense): Linear(in_features=512, out_features=512, bias=True)
    (attention_dropout): Dropout(p=0.0, inplace=False)
  )
  (mlp): GPTNeoXMLP(
    (dense_h_to_4h): Linear(in_features=512, out_features=2048, bias=True)
    (dense_4h_to_h): Linear(in_features=2048, out_features=512, bias=True)
    (act): GELUActivation()
  )
)
GPTNeoXAttention(
  (rotary_emb): GPTNeoXRotaryEmbedding()
  (query_key_value): Linear(in_features=512, out_features=1536, bias=True)
  (dense): Linear(in_features=512, out_features=512, bias=True)
  (attention_dropout): Dropout(p=0.0, inplace=False)
)
GPTNeoXLayer(
  (input_layernorm): LayerNorm((512,), eps=1e-05, elementwise_affine=True)
  (post_attention_layernorm): LayerNorm((512,), eps=1e-05, elementwise_affine=True)
  (post_attention_dropout): Dropout(p=0.0, inplace=False)
  (post_mlp_dropout): Dropout(p=0.0, inplace=False)
  (attention): GPTNeoXAttention(
    (rotary_emb): GPTNeoXRotaryEmbedding()
    (query_key_value): Linear(in_features=512, out_features=1536, bias=True)
    (dense): Linear(in_features=512, out_features=512, bias=True)
    (attention_dropout): Dropout(p=0.0, inplace=False)
  )
  (mlp): GPTNeoXMLP(
    (dense_h_to_4h): Linear(in_features=512, out_features=2048, bias=True)
    (dense_4h_to_h): Linear(in_features=2048, out_features=512, bias=True)
    (act): GELUActivation()
  )
)
22378
<built-in method float of Tensor object at 0x3dc0bbed0>
  0%|          | 0/22378 [00:00<?, ?it/s]/var/folders/_x/mkf1szd12yv28px5ztl_sjjr0000gn/T/ipykernel_27855/3200146418.py:74: UserWarning: To copy construct from a tensor, it is recommended to use sourceTensor.clone().detach() or sourceTensor.clone().detach().requires_grad_(True), rather than torch.tensor(sourceTensor).
…
