…
/var/folders/_x/mkf1szd12yv28px5ztl_sjjr0000gn/T/ipykernel_41813/1331448289.py:75: UserWarning: To copy construct from a tensor, it is recommended to use sourceTensor.clone().detach() or sourceTensor.clone().detach().requires_grad_(True), rather than torch.tensor(sourceTensor).
  l3_mask_sigmoid = t.sigmoid(self.l3_mask / t.tensor(self.temperature.clone().detach()))
/var/folders/_x/mkf1szd12yv28px5ztl_sjjr0000gn/T/ipykernel_41813/1331448289.py:76: UserWarning: To copy construct from a tensor, it is recommended to use sourceTensor.clone().detach() or sourceTensor.clone().detach().requires_grad_(True), rather than torch.tensor(sourceTensor).
  l4_mask_sigmoid = t.sigmoid(self.l4_mask / t.tensor(self.temperature.clone().detach()))
  0%|          | 0/22378 [00:00<?, ?it/s]
Embedding(50304, 512)
GPTNeoXMLP(
  (dense_h_to_4h): Linear(in_features=512, out_features=2048, bias=True)
  (dense_4h_to_h): Linear(in_features=2048, out_features=512, bias=True)
  (act): GELUActivation()
)
GPTNeoXMLP(
  (dense_h_to_4h): Linear(in_features=512, out_features=2048, bias=True)
  (dense_4h_to_h): Linear(in_features=2048, out_features=512, bias=True)
  (act): GELUActivation()
)
GPTNeoXMLP(
  (dense_h_to_4h): Linear(in_features=512, out_features=2048, bias=True)
  (dense_4h_to_h): Linear(in_features=2048, out_features=512, bias=True)
  (act): GELUActivation()
)
GPTNeoXMLP(
  (dense_h_to_4h): Linear(in_features=512, out_features=2048, bias=True)
  (dense_4h_to_h): Linear(in_features=2048, out_features=512, bias=True)
  (act): GELUActivation()
)
GPTNeoXMLP(
  (dense_h_to_4h): Linear(in_features=512, out_features=2048, bias=True)
  (dense_4h_to_h): Linear(in_features=2048, out_features=512, bias=True)
  (act): GELUActivation()
)
/Users/maheepchaudhary/miniforge3/envs/nnsight/lib/python3.12/site-packages/huggingface_hub/file_download.py:1132: FutureWarning: `resume_download` is deprecated and will be removed in version 1.0.0. Downloads always resume when possible. If you want to force a new download, use `force_download=True`.
  warnings.warn(
  0%|
…
